…
Using downloaded and verified file: /home/amrit/Downloads/datasets/organcmnist.npz
Using downloaded and verified file: /home/amrit/Downloads/datasets/breastmnist.npz
Using downloaded and verified file: /home/amrit/Downloads/datasets/breastmnist.npz
Using downloaded and verified file: /home/amrit/Downloads/datasets/pneumoniamnist.npz
Using downloaded and verified file: /home/amrit/Downloads/datasets/pneumoniamnist.npz
15
Using downloaded and verified file: /home/amrit/Downloads/datasets/organcmnist.npz
Using downloaded and verified file: /home/amrit/Downloads/datasets/organcmnist.npz
REMIND_F(
  (conv): Sequential(
    (0): Conv2d(64, 128, kernel_size=(3, 3), stride=(1, 1), padding=(1, 1))
    (1): ReLU()
    (2): Conv2d(128, 128, kernel_size=(3, 3), stride=(1, 1), padding=(1, 1))
    (3): ReLU()
    (4): MaxPool2d(kernel_size=2, stride=2, padding=0, dilation=1, ceil_mode=False)
  )
  (fc): Sequential(
    (0): Linear(in_features=8192, out_features=2000, bias=True)
    (1): ReLU()
    (2): Linear(in_features=2000, out_features=11, bias=True)
  )
) REMIND_G(
  (conv): Sequential(
    (0): Conv2d(3, 64, kernel_size=(3, 3), stride=(1, 1), padding=(1, 1))
    (1): ReLU()
    (2): Conv2d(64, 64, kernel_size=(3, 3), stride=(1, 1), padding=(1, 1))
    (3): ReLU()
    (4): MaxPool2d(kernel_size=2, stride=2, padding=0, dilation=1, ceil_mode=False)
  )
)
Weights not found. Pretraining feature_extract_G
^APretrain Epoch: 1/10, Loss: 1.3238592147827148
Pretrain Epoch: 2/10, Loss: 0.6111790537834167
Pretrain Epoch: 3/10, Loss: 0.4982886016368866
Pretrain Epoch: 4/10, Loss: 0.27898553013801575
Pretrain Epoch: 5/10, Loss: 0.24776454269886017
Pretrain Epoch: 6/10, Loss: 0.1628250926733017
Pretrain Epoch: 7/10, Loss: 0.10209472477436066
Pretrain Epoch: 8/10, Loss: 0.1538977473974228
Pretrain Epoch: 9/10, Loss: 0.14510032534599304
Pretrain Epoch: 10/10, Loss: 0.07425898313522339
Test Accuracy: 86.9980648282535%
Feature Extractor: REMIND_G(
  (conv): Sequential(
    (0): Conv2d(3, 64, kernel_size=(3, 3), stride=(1, 1), padding=(1, 1))
    (1): ReLU()
    (2): Conv2d(64, 64, kernel_size=(3, 3), stride=(1, 1), padding=(1, 1))
    (3): ReLU()
    (4): MaxPool2d(kernel_size=2, stride=2, padding=0, dilation=1, ceil_mode=False)
  )
)
Classifier: REMIND_F(
  (conv): Sequential(
    (0): Conv2d(64, 128, kernel_size=(3, 3), stride=(1, 1), padding=(1, 1))
    (1): ReLU()
    (2): Conv2d(128, 128, kernel_size=(3, 3), stride=(1, 1), padding=(1, 1))
    (3): ReLU()
    (4): MaxPool2d(kernel_size=2, stride=2, padding=0, dilation=1, ceil_mode=False)
  )
  (fc): Sequential(
    (0): Linear(in_features=8192, out_features=2000, bias=True)
    (1): ReLU()
    (2): Linear(in_features=2000, out_features=15, bias=True)
  )
)

Training Product Quantizer
Completed in 13.82796025276184 secs

Creating Memory
Memory size in samples:  1500
****** Learning Episode-1   Classes: [0, 1, 2, 3, 4] ******
Epoch: 1/10, Loss: 2.3695255177361623
Epoch: 2/10, Loss: 1.6556163685662406
Epoch: 3/10, Loss: 1.2847039635692323
Epoch: 4/10, Loss: 1.072200484041657
Epoch: 5/10, Loss: 0.9272445316825594
…
