…
Using downloaded and verified file: /home/amrit/Downloads/datasets/pathmnist.npz
Using downloaded and verified file: /home/amrit/Downloads/datasets/bloodmnist.npz
Using downloaded and verified file: /home/amrit/Downloads/datasets/bloodmnist.npz
Using downloaded and verified file: /home/amrit/Downloads/datasets/tissuemnist.npz
Using downloaded and verified file: /home/amrit/Downloads/datasets/tissuemnist.npz
Using downloaded and verified file: /home/amrit/Downloads/datasets/pathmnist.npz
Using downloaded and verified file: /home/amrit/Downloads/datasets/pathmnist.npz
REMIND_F(
  (conv): Sequential(
    (0): Conv2d(64, 128, kernel_size=(3, 3), stride=(1, 1), padding=(1, 1))
    (1): ReLU()
    (2): Conv2d(128, 128, kernel_size=(3, 3), stride=(1, 1), padding=(1, 1))
    (3): ReLU()
    (4): MaxPool2d(kernel_size=2, stride=2, padding=0, dilation=1, ceil_mode=False)
  )
  (fc): Sequential(
    (0): Linear(in_features=8192, out_features=2000, bias=True)
    (1): ReLU()
    (2): Linear(in_features=2000, out_features=9, bias=True)
  )
) REMIND_G(
  (conv): Sequential(
    (0): Conv2d(3, 64, kernel_size=(3, 3), stride=(1, 1), padding=(1, 1))
    (1): ReLU()
    (2): Conv2d(64, 64, kernel_size=(3, 3), stride=(1, 1), padding=(1, 1))
    (3): ReLU()
    (4): MaxPool2d(kernel_size=2, stride=2, padding=0, dilation=1, ceil_mode=False)
  )
)
Weights not found. Pretraining feature_extract_G
Pretrain Epoch: 1/10, Loss: 1.2477880716323853
Pretrain Epoch: 2/10, Loss: 0.9445071816444397
Pretrain Epoch: 3/10, Loss: 0.4261118173599243
Pretrain Epoch: 4/10, Loss: 0.6382043957710266
Pretrain Epoch: 5/10, Loss: 0.5346593260765076
Pretrain Epoch: 6/10, Loss: 0.5091921091079712
Pretrain Epoch: 7/10, Loss: 0.3074113130569458
Pretrain Epoch: 8/10, Loss: 0.3038175404071808
Pretrain Epoch: 9/10, Loss: 0.26874691247940063
Pretrain Epoch: 10/10, Loss: 0.15315872430801392
Test Accuracy: 83.16155988857939%
Feature Extractor: REMIND_G(
  (conv): Sequential(
    (0): Conv2d(3, 64, kernel_size=(3, 3), stride=(1, 1), padding=(1, 1))
    (1): ReLU()
    (2): Conv2d(64, 64, kernel_size=(3, 3), stride=(1, 1), padding=(1, 1))
    (3): ReLU()
    (4): MaxPool2d(kernel_size=2, stride=2, padding=0, dilation=1, ceil_mode=False)
  )
)
Classifier: REMIND_F(
  (conv): Sequential(
    (0): Conv2d(64, 128, kernel_size=(3, 3), stride=(1, 1), padding=(1, 1))
    (1): ReLU()
    (2): Conv2d(128, 128, kernel_size=(3, 3), stride=(1, 1), padding=(1, 1))
    (3): ReLU()
    (4): MaxPool2d(kernel_size=2, stride=2, padding=0, dilation=1, ceil_mode=False)
  )
  (fc): Sequential(
    (0): Linear(in_features=8192, out_features=2000, bias=True)
    (1): ReLU()
    (2): Linear(in_features=2000, out_features=25, bias=True)
  )
)

Training Product Quantizer
Completed in 39.203229904174805 secs

Creating Memory
Memory size in samples:  2500
****** Learning Episode-1   Classes: [0, 1, 2, 3, 4, 5, 6, 7, 8] ******
Epoch: 1/10, Loss: 0.7319257023591029
Epoch: 2/10, Loss: 0.5722781917716881
Epoch: 3/10, Loss: 0.48592546472192377
Epoch: 4/10, Loss: 0.42837307766032773
…
